Regression/models/model.pth (torch, 13727 bytes, 3 tensors)

net.0.weight f4 [32, 93]
00000000: a0dc b8b6 129b 2c39 427c e837 0e00 9238
00000010: 66b3 efb6 ae67 5b37 2c91 d4b7 0ce4 8db8
00000020: ed90 08b8 c121 e2b7 2c6b 9cb5 65ad ebb7
00000030: 4457 35b7 a797 ad37 a9ba e837 e139 8636
00000040: 5fd2 73b8 e053 88b7 664a 3137 25dc 6c37
00000050: 59a5 1c37 dff2 e435 d4e4 89b6 80b6 dd36
00000060: e084 77b7 621c bc37 d856 16b8 ca61 2536
00000070: e1c3 1737 2299 7735 fac2 a8b5 ac54 f434
00000080: cebc b8b7 fe85 cf36 74c9 6435 e15a 3f36
00000090: 0003 2fb3 46ac 14b8 37b6 45b8 9d65 a137
000000a0: 4348 d639 2bfd e239 ffec b3bc 828c c2b8
000000b0: ae0a 2bb9 9197 6bb9 1830 a136 216d 8eb8
000000c0: 1672 a4b8 3d1b 8339 2ed3 49ba 300b 5138
000000d0: efbe e6b8 0c56 a1b8 65a2 5c38 fb40 5ab8
000000e0: f2d8 8b38 dd7a c0bd 52fe ee39 e4e1 133a
000000f0: c155 99b8 2c53 c8b7 a0f9 9bb9 13a2 7cb9
00000100: 7e1c 2ab8 56d0 12b9 dcbf 6f37 36e4 9439
00000110: da90 54ba 067a 8639 a012 0ab8 66af 0b39
00000120: e80c 2f39 540c adb8 721e b337 02a4 babe
00000130: e9b7 8439 209a ba39 8596 2aba 99e9 35b8
00000140: 1e5d 9db9 a630 1b3a 4c0c a737 f6a4 06b8
00000150: c186 9d39 5378 3b3a eb17 65ba 6ca2 a03b
00000160: 09ae 95ba 9833 0639 28be b838 3456 16b7
00000170: 903d b9b9 3c81 1ab8 beb7 08b9 a7d3 85b7
00000180: 8cf0 4537 3098 27b4 805b c9b6 2f7c 2137
00000190: 80c2 6e38 23a8 6f37 e6d6 9d39 d0e5 37b8
000001a0: 272b ddb6 000b 9233 dafe d639 b5e7 2eb8
000001b0: dc42 b737 d651 5338 0b0a 52b6 0a55 17b8
000001c0: bcdb 1038 1aeb c239 ae61 9938 b257 4bb9
000001d0: 7903 a53c d8d1 9b37 c603 7bb9 75c7 2438
000001e0: c9f3 ef38 87ab 5639 aa66 0dba ac63 2b37
000001f0: 4f09 e83a 49a9 e438 60c8 6aba 7322 a139
00000200: a586 7139 f03e 13b8 8ae4 cf37 f251 a337
00000210: 8b4e 18b9 c60c 96bb 7bec a7ba 54a4 023a
00000220: c5c6 a239 92c0 5039 9d3b 003b 9dfa 0dbc
00000230: 8e9b 8a39 0dd0 9eb9 0b3c 21ba 7dc2 043a
00000240: 4692 0eb9 fd4b 95bb 425f fd3a dcea 51bb
00000250: 983d 1cba be00 6eb9 585a 823a 9c8f b5bb
00000260: acd7 66bc f47f da39 5d60 e739 b086 c439
00000270: 629f 713a 15d8 2938 de14 0a3a f934 9cb9
00000280: ff9d 24bb 443e 083a 698c 5639 6bc9 12ba
00000290: 2f40 13ba aa5d 0cb9 ef09 8bba 3c54 c139
000002a0: 0ac9 003f 6674 b73b 3f88 8a3c 4c78 153b
000002b0: 8a21 263b 6672 1d3a 6fbb 90bb 9259 82ba
000002c0: d627 1bb9 b80a 4eba ebe6 00bc d736 fd3a
000002d0: 812b e4b9 7d60 033b 7156 9a39 fe70 3e3a
000002e0: 0997 1cba e742 b63a 200f 41b8 9c1b ebbc
000002f0: b905 53b7 9014 38b9 b01d 0937 3a26 a336
00000300: 09eb 1a37 d1c8 a538 5495 d737 d50f 543a
00000310: a760 2239 9026 23b8 ed03 4f39 36e5 043a
00000320: 206b e2b7 bf6d 2c38 5a7e 0f38 b4db 1736
00000330: a9ad 52b7 b3b3 35b8 b947 6139 944e 5639
00000340: c206 37b9 6cfc 4539 1101 8338 5ca3 5fb9
00000350: 6593 3038 ab19 9638 0f5d 8339 4a6b fab9
00000360: d87d 2037 bc18 343b 7989 bd38 c761 cdbb
00000370: 82f9 ec39 c8d0 d137 1778 c8b7 797e 8838
00000380: 151d 68b9 02d9 f6b7 79ca 8039 f1c7 ad3a
00000390: 2c74 a43a e170 ac3a d034 14bb 24ae 453a
000003a0: 37ea 8cbc 5719 f339 87d7 ebb9 adda 7bb9
000003b0: a421 983b fca3 4aba e91f 61bc 2ebb 583a
000003c0: f2b5 04ba 6dbc 49b9 aa24 22bc 0545 573b
000003d0: 621b e7bc ceec 39bd 1c9e f83a eab3 2d3b
000003e0: 3c2b 1fba 1bc8 fc39 8532 2538 8cc8 273b
000003f0: 9d61 28b9 c24b 7aba bbc7 aa3b f0aa 94b9
-5.5093114e-06 0.00016460966 2.7714417e-05 6.961833e-05 -7.14364e-06 1.3077557e-05 -2.533997e-05 -6.765881e-05
-3.25599e-05 -2.6957017e-05 -1.1654097e-06 -2.8094926e-05 -1.0808759e-05 2.0693826e-05 2.7743476e-05 4.000249e-06
-5.8131638e-05 -1.625152e-05 1.0567344e-05 1.4117953e-05 9.336823e-06 1.7058009e-06 -4.1095573e-06 6.607559e-06
-1.4753285e-05 2.2424563e-05 -3.5843666e-05 2.4643837e-06 9.045908e-06 9.223751e-07 -1.2573721e-06 4.5510149e-07
-2.2022428e-05 6.1846795e-06 8.522977e-07 2.8514116e-06 -4.074809e-08 -3.5446392e-05 -4.713816e-05 1.9240013e-05
0.000408711 0.00043294704 -0.021963594 -9.2768125e-05 -0.0001631181 -0.0002246781 4.8037728e-06 -6.7914145e-05
-7.8413796e-05 0.0002500656 -0.000769901 4.9839902e-05 -0.00011002819 -7.693106e-05 5.260333e-05 -5.2035768e-05
6.668446e-05 -0.09398434 0.0004558438 0.00056412653 -7.3115814e-05 -2.3880588e-05 -0.0002974989 -0.0002409297
-4.0557694e-05 -0.00014001256 1.4290181e-05 0.0002839879 -0.0008108743 0.00025649386 -3.291911e-05 0.00013321414
0.00016694108 -8.251579e-05 2.135264e-05 -0.36453253 0.00025314026 0.00035591517 -0.00065074145 -4.3371318e-05
-0.0003001475 0.000592003 1.9913678e-05 -3.210172e-05 0.00030045773 0.00071514136 -0.0008739221 0.0049021747
-0.0011419664 0.00012798456 8.809223e-05 -8.960767e-06 -0.00035331817 -3.683682e-05 -0.0001303842 -1.5953394e-05
1.1798122e-05 -1.5608452e-07 -6.000919e-06 9.625262e-06 5.6924764e-05 1.42846575e-05 0.00030105485 -4.384463e-05
-6.591337e-06 6.800656e-08 0.0004100714 -4.1700627e-05 2.1846434e-05 5.0382536e-05 -3.1298284e-06 -3.6080404e-05
3.453692e-05 0.00037177728 7.313803e-05 -0.00019392258 0.020143257 1.8575156e-05 -0.00023938631 3.9286406e-05
0.000114418166 0.0002047253 -0.0005394021 1.0215601e-05 0.001770297 0.00010903419 -0.000895625 0.0003073398
0.0002303371 -3.5106146e-05 2.4782745e-05 1.9469273e-05 -0.00014525109 -0.0045791594 -0.0012811566 0.0004983593
0.00031047143 0.00019908164 0.0019566782 -0.008665708 0.00026437308 -0.00030291118 -0.00061506097 0.00050643814
-0.00013596666 -0.0045561776 0.0019330757 -0.0032030856 -0.0005960106 -0.00022697725 0.0009945137 -0.005540801
-0.014089506 0.00041675533 0.0004413155 0.00037484383 0.00092171703 4.0493982e-05 0.00052673917 -0.00029794106
-0.0025118587 0.00051972666 0.00020460937 -0.00055994716 -0.0005617169 -0.00013386333 -0.0010607819 0.00036874588
0.5030676 0.0055985926 0.01691067 0.0022807298 0.002534958 0.00060061214 -0.004416875 -0.0009944907
-0.00014796792 -0.00078598736 -0.007867555 0.0019318712 -0.00043519962 0.0020046525 0.00029437573 0.0007264762
-0.0005973434 0.0013905436 -4.6028872e-05 -0.028699689 -1.25779125e-05 -0.00017555268 8.1727485e-06 4.8622287e-06
9.233839e-06 7.905218e-05 2.5699534e-05 0.00080895174 0.0001548553 -3.8898143e-05 0.00019742521 0.00050695555
-2.6991183e-05 4.1110205e-05 3.421153e-05 2.2628637e-06 -1.2557409e-05 -4.332112e-05 0.00021484391 0.00020437903
-0.00017454757 0.00018881419 6.2467654e-05 -0.00021327793 4.209894e-05 7.1573384e-05 0.000250556 -0.00047763652
9.566043e-06 0.0027480563 9.0378286e-05 -0.0062677595 0.00045199326 2.5011963e-05 -2.389778e-05 6.508543e-05
-0.00022136078 -2.9426537e-05 0.00024564916 0.001325844 0.0012546829 0.0013156199 -0.0022614487 0.00075409026
-0.017201526 0.0004636745 -0.00044983273 -0.00024018688 0.004642682 -0.0007730124 -0.013740518 0.0008267638
-0.00050625124 -0.00019239048 -0.009896437 0.0032847535 -0.0282113 -0.04539185 0.0018968019 0.0026504942
-0.0006071811 0.00048214276 3.9386116e-05 0.0025601713 -0.00016058092 -0.0009548032 0.005211798 -0.00028356118

net.0.bias f4 [32]
00000000: e917 bcbe 653f 3d3f 191d 313f a5b4 b8be
00000010: a815 323f 87f6 ff35 4941 353f e368 b9be
00000020: fcf4 333f b414 babe 82f5 383f f14c 2f3f
00000030: ebcc 333f 0b7f 353f d4a7 333f 1be3 bf35
00000040: 9508 383f 5797 303f b75a 353f 1456 adbe
00000050: 9352 343f 955b babe 10b9 c4be 3499 313f
00000060: eb3c b7be 62b7 3c3f f29e 91be fd56 bfbe
00000070: 4475 b2be f45f 333f 3e8c 50be 5d27 363f
-0.36736992 0.7392486 0.69185024 -0.3607532 0.69564295 1.9070729e-06 0.7080274 -0.36212835
0.7029569 -0.3634392 0.72249615 0.6847678 0.70234555 0.7089698 0.7017796 1.4296705e-06
0.71888095 0.68980926 0.70841545 -0.33854735 0.704385 -0.36397997 -0.3842244 0.69374394
-0.35788664 0.7371732 -0.28441578 -0.37371054 -0.34855092 0.7006829 -0.20365998 0.71153814

net.3.weight f4 [1, 32]
00000000: 4a26 80bf 9eec 403f f089 503f 3608 78bf
00000010: 4699 4f3f bab5 44b6 65c7 4b3f fda9 76bf
00000020: 6527 4c3f a21e 7cbf 12ff 4e3f 181d 503f
00000030: d7fb 4f3f 20b0 483f 8a87 4b3f 73ba fcb5
00000040: cf02 443f 415c 4b3f 5ee4 4c3f 9c32 64bf
00000050: 9341 4e3f 2b7a 86bf d4c6 8abf 7b85 4e3f
00000060: 8fd3 7abf 4d70 4a3f f60a 39bf e77f 84bf
00000070: 6ac4 70bf c695 4f3f c190 e8be fda6 503f
-1.0011685 0.7536105 0.81460476 -0.9688753 0.8109325 -2.9312055e-06 0.79601127 -0.9635313
0.7974761 -0.9848424 0.80857956 0.81294394 0.8124365 0.78393745 0.7950369 -1.8829727e-06
0.76566786 0.79437643 0.8003596 -0.89139724 0.8056881 -1.0506033 -1.0841928 0.80672425
-0.9797906 0.7907761 -0.7228235 -1.0351533 -0.94049704 0.8108791 -0.45422938 0.81504804
