Regression/models/model.pth (torch, 13727 bytes, 3 tensors)

net.0.weight f4 [32, 93]
00000000: 40cb 433d d59e 013c 9c6f d3bc 126c 59bc
00000010: 46d5 6b3c 78b0 523d 0122 a93c 3304 83bd
00000020: ecea 833d 9f2c 8bbb 66dc 563d b5c9 a93d
00000030: 393e 7ebd 7a4a 92b6 b961 023d 12df 6cbc
00000040: d0ba 243d 00e7 0638 2ce6 7b3d 3af5 283d
00000050: 20b9 a23d 4f1d 6c3d 070d 6bbd 08bf 4dbd
00000060: 01cb 8cbd 0d0a e73d b42c e234 9a23 1eb9
00000070: e938 94bd 6ba2 53bd d41e 9b3c 3db9 2abb
00000080: 3d7b a7bd 81da aabd d0bd ddbc bea9 40bd
00000090: df15 6b3d ac93 2d3c cc6f 71bc 1c11 41bd
000000a0: f83a 163d 45cb 9d3d 36b2 85bd d83f 9ebd
000000b0: ed24 bfbd b952 0a3d c3f7 80ba cdeb 0a3c
000000c0: 1ec1 77bd 6868 fcbc 4712 92bd a0f7 e5bc
000000d0: 601d 8d38 3f9d 8d3d 4c0e 923d bdd6 8abd
000000e0: 464f 1a3d c7c3 bbbc 1ce1 7cbc 94d4 56bd
000000f0: 34f1 45bd 02c5 90bd b68a 57bd ff00 023c
00000100: c146 953d 8f33 89bd cb88 8a3d 4078 72bd
00000110: ad00 cd3d a7ca b5bd 04ed 013d 7737 9fbc
00000120: cde0 a83d f69f 883d 6632 b1bb 614b d0bd
00000130: 8936 6f3d 2a7b a9bd bc80 babc 075d c6bb
00000140: b1a7 f6bc 74f9 f3bc 3e58 7dbd 48d4 95bd
00000150: 4a19 ba3b 78b5 693b 765f 34bc 9d0d 073c
00000160: ccaf 83bc 9d61 38bd 3bd9 9d3c 28b7 a03d
00000170: 43c0 a23d 0743 7ebd 5fea c9bd 9cc3 c93c
00000180: c7d0 23bd a0d3 993d e482 4b3a 6930 7f3d
00000190: 4b8b 7dbd 5ac6 8dbd 49bd b7bc 41c6 6d3d
000001a0: 1511 88bd e963 093c 68de 893d be98 7d3d
000001b0: 0b3f e1bc e52e 03bd 6445 4539 cbef a7bc
000001c0: 50ac 103d e5e5 e03d 3f6a 783e da9f 2e3d
000001d0: 911d 8a3e 546e 863d 16db 95bd d00c 1f39
000001e0: b3d3 0f3e 6ff2 083d 12ea 29bd 414f 3fbb
000001f0: 978d bc3d cd20 c2bc e90a 3cbd 5444 913d
00000200: 8314 463e 311b 0e3e e040 02be e94f 5439
00000210: fd47 233e adb3 97bd 8daa c4bd d104 d03b
00000220: 086c 64bd 43bd 5e3e 68aa 6fbd 507a 09bc
00000230: dc37 083e 0e8d 34bc 8715 853c ee59 5fbd
00000240: 806c 1cbc 9ada 9fbd 9b84 1dbe 79a7 73bd
00000250: 8ac3 22bd d4f0 18be 3bb1 203f 8d11 8cbc
00000260: b309 02be 6e1f 47bc 0087 f43c 691b 763e
00000270: 5677 79bc d688 8abd bbd7 283c 8802 443d
00000280: 5c57 92bd 2e3d 09bd 457f f1bd e2aa f8bc
00000290: a928 57bd 6bcc 413c 3c3f 66bd 4be6 e5bd
000002a0: 354b 3e3f d2c2 9fbd ae03 9cbd 2e86 513d
000002b0: 56a1 d4bc a9d3 843e 3d12 5ebd dc57 46ba
000002c0: 99c3 fabc 53e8 a43c 5b22 d13d 141a 59bd
000002d0: c38b d03c 27e5 37bc 5c7c 04be bc9a 81bd
000002e0: 1085 443d 1e6c 64be 094a abbd 212c a5bd
000002f0: 14af 70bd 11ed a6bd aad9 20bd 131f c33d
00000300: 7260 293d f25d 243d 01c4 d63c bd60 5f3c
00000310: dcdc 07bd 0602 17bd 1dd8 e33b dfe4 b4bd
00000320: 7e8c bb3c 54d9 aa3d 3825 333d b224 b7bd
00000330: 7503 c73b e0dc 8a3d 0643 c73c dbc2 8a3d
00000340: ab28 7c3d 7839 7ebc 61b3 64bb 32a8 963d
00000350: 4d6b bdbd 36b9 0e3d 7ad6 31b9 a667 243c
00000360: f064 3c3a dbee cb3c 6634 7437 fb4b 213d
00000370: 536d a8bd 4319 a6bd 11b5 6dbd 9331 9dbd
00000380: 43f8 0b3c 3775 293d aee1 353d abe9 4cbd
00000390: bd59 35bd aa12 abbd 4ef7 28bc 3445 55bd
000003a0: ba88 453d 6a3b 413c e90d 3ebd 2430 d6bc
000003b0: c109 aebb 4549 0a3d 7cc6 c03d e6d6 87bd
000003c0: d09b b63c 84c4 7ebd 9264 c13c 7826 5b3d
000003d0: 6b77 8cbb a4f0 133d 803c f83a 17eb 13bc
000003e0: c707 eab8 6303 63bd 0863 223d 974d bf3b
000003f0: 85fe a6bd fce8 9abd 2bbf 49bd 8fd3 af3d
0.047801256 0.007911404 -0.025810055 -0.013270395 0.01439411 0.051437825 0.020646097 -0.06397285
0.06441292 -0.0042472626 0.052456282 0.08290426 -0.06207106 -4.3598093e-06 0.031831477 -0.014457481
0.04021722 3.2163225e-05 0.061498806 0.04124949 0.07945466 0.05764514 -0.05738547 -0.05023101
-0.068746574 0.11281214 4.2128306e-07 -0.00015081317 -0.07237417 -0.051668566 0.018935598 -0.0026050352
-0.08177803 -0.083424576 -0.027068049 -0.04703688 0.057393905 0.01059429 -0.014736127 -0.047135457
0.03667733 0.07704786 -0.06528132 -0.07727021 -0.09333215 0.033770297 -0.0009839464 0.008479071
-0.060486905 -0.030811504 -0.071323924 -0.028072178 6.7288755e-05 0.06914758 0.07131633 -0.06779239
0.037673257 -0.022920502 -0.01543453 -0.052448824 -0.048325732 -0.07068826 -0.05262252 0.007934808
0.07288886 -0.06699287 0.067643724 -0.05919671 0.100098945 -0.088765435 0.031720176 -0.019435627
0.08246002 0.06671135 -0.0054076193 -0.101706274 0.05840162 -0.08275445 -0.022766463 -0.00605357
-0.030109258 -0.029782034 -0.061851732 -0.0731588 0.005679284 0.0035661142 -0.011009088 0.008242992
-0.016075037 -0.045014966 0.019268623 0.07847434 0.07946827 -0.06207564 -0.09859156 0.024629407
-0.039994027 0.075110674 0.00077633397 0.062302027 -0.06190042 -0.06922598 -0.022429125 0.058050398
-0.06643883 0.008385637 0.06731874 0.061913244 -0.027495882 -0.032027144 0.00018813234 -0.020500084
0.03532058 0.10981349 0.2425928 0.042632915 0.26975682 0.06564012 -0.07317178 0.00015168195
0.140456 0.033434328 -0.041482992 -0.0029191526 0.092066936 -0.023697281 -0.045908842 0.07093111
0.19343762 0.1387756 -0.1272006 0.00020247664 0.1594543 -0.07407317 -0.096028425 0.0063482304
-0.05576709 0.21751885 -0.05851212 -0.008390978 0.13302559 -0.011019958 0.016245617 -0.054529123
-0.009547353 -0.07805367 -0.15382616 -0.059485886 -0.03973726 -0.14935619 0.6277043 -0.017098213
-0.12699012 -0.0121534895 0.02984953 0.24033894 -0.015226206 -0.06764381 0.01030534 0.047853976
-0.07145569 -0.03350561 -0.11791853 -0.03035492 -0.05252901 0.011828522 -0.05621265 -0.112255655
0.74333507 -0.07800831 -0.07617889 0.051153354 -0.025955837 0.25942734 -0.054216612 -0.00075661927
-0.030610846 0.020130312 0.10211631 -0.053003386 0.025457269 -0.011224068 -0.12938064 -0.06328341
0.04797846 -0.22306868 -0.083637305 -0.080650575 -0.058760718 -0.081506856 -0.03927008 0.09527411
0.041351743 0.040128656 0.026216509 0.013633904 -0.033169612 -0.036867164 0.006953253 -0.08832716
0.02289414 0.08342233 0.043736666 -0.08942546 0.00607341 0.0678041 0.024323951 0.06775447
0.06156222 -0.015516631 -0.0034896957 0.073562995 -0.092489816 0.0348446 -0.00016959934 0.010034477
0.0007186672 0.024894169 1.4555733e-05 0.0393791 -0.08223977 -0.08110287 -0.058034007 -0.07675471
0.008543077 0.04137155 0.044404678 -0.05002753 -0.044275034 -0.08353169 -0.010312868 -0.05206795
0.048226096 0.011793951 -0.046399985 -0.026146002 -0.0053112213 0.03376128 0.09412858 -0.066327855
0.022291094 -0.06219913 0.023607526 0.053503484 -0.0042866967 0.036118165 0.0018938929 -0.009028218
-0.00011159438 -0.05542315 0.039645225 0.005838107 -0.081540145 -0.075639695 -0.049254578 0.085852735

net.0.bias f4 [32]
00000000: c7e2 aabe bda5 b33f 6d5b 323e a463 b4be
00000010: 5fcb cb3d 3702 24be e5a0 6f3f 27ee 9dbe
00000020: 5db6 ca3f a299 a2be fa96 433f fd9c 433d
00000030: 8554 253e 9b6f d43e 84c8 3a3f 372f 6c3d
00000040: 7100 813f 4e8a 933d a72a 383f 2ecd 6dbe
00000050: 3fa6 973e ebc2 c4be cad4 babe ddee f43d
00000060: 1fe2 a8be fbf7 543f 6ae0 02be f9de bebe
00000070: b268 5bbe 5540 c73e e229 fabd b2a1 c93e
-0.33376142 1.4034954 0.17417689 -0.3523227 0.09950899 -0.1601647 0.9360488 -0.30845758
1.5836903 -0.31757838 0.76402247 0.047757138 0.16145523 0.41491398 0.7296221 0.057662215
1.007826 0.07204114 0.7194008 -0.23222801 0.29619023 -0.3842996 -0.3649047 0.11959622
-0.32985017 0.8319089 -0.1278092 -0.3727949 -0.21426657 0.3891627 -0.1221502 0.39381176

net.3.weight f4 [1, 32]
00000000: 6f2c d6be 7dbe 9e3f 5db2 7c3e 2878 d2be
00000010: dcae 023e 4c3d b4bd c01c 723f 0f45 b7be
00000020: 5920 be3f f5ce bfbe 1130 463f 498d a53d
00000030: c057 4e3e 6dcd 173f 756e 4d3f 15e6 0d3d
00000040: c59e 8a3f 0351 bd3d 2ff4 543f ec4e 89be
00000050: 542e ff3e 1131 f5be 427c fbbe 4536 133e
00000060: 137d c0be daff 403f 7f2a 3dbe d641 e4be
00000070: 309b a1be d4e9 d33e fcdc f6bd 0619 f33e
-0.41830775 1.2401882 0.24677415 -0.41107297 0.12762016 -0.08800754 0.9457512 -0.35794875
1.4853622 -0.37462583 0.77417094 0.08083589 0.20150661 0.5929783 0.8024667 0.03464325
1.0829703 0.092439674 0.83185095 -0.26818025 0.49840033 -0.47888997 -0.4911824 0.14376171
-0.37595424 0.753904 -0.18473242 -0.4458148 -0.3156371 0.41389334 -0.12053868 0.4748003
